A2/softmax_best_model.pt (torch, 247478 bytes, 1 tensors)

W f8 [3073, 10]
00000000: adad a7aa e48d 0a3f 8565 44fe d6e3 f73e
00000010: 1e20 2728 410b f5be e366 8f40 3043 03bf
00000020: daeb e65a e70f 18bf 4f67 2755 b250 17bf
00000030: edba 9601 06e3 0dbf 5d04 562c d85e f63e
00000040: f30f 4977 b416 0e3f dca5 8386 fc81 223f
00000050: 6c97 e9fe 6b2a 0a3f 8104 781b f348 fa3e
00000060: 78ab b3c0 4e85 f4be e31f 9b26 0d22 01bf
00000070: 9d45 aa3e 600f 17bf 1358 afdc ea42 17bf
00000080: f830 723e e8ea 0ebf bd90 fca0 411d f23e
00000090: 8ff9 9a2e d81b 0d3f 1f52 dad4 ab33 223f
000000a0: 65c6 625f 47cc 093f 3f8c 9f97 fe10 fa3e
000000b0: 107c 07f1 5f6c f2be b82e af13 6c3a 01bf
000000c0: ae81 a346 180f 16bf ae31 ffda a298 17bf
000000d0: d552 6b77 341b 10bf 6d61 bec2 e7d8 f23e
000000e0: d597 4ccf 5299 0d3f c9fe ccf2 2425 223f
000000f0: a774 dda2 9327 093f 6286 5d36 09d2 f93e
00000100: 91c3 72b4 04e5 f2be b6ca 0080 ac57 01bf
00000110: 91db c189 4b93 16bf a139 37e4 baf7 16bf
00000120: 01cf b4f6 dc81 10bf 3d70 78dc 2ca9 f03e
00000130: 5c6a dc45 780a 0f3f f5bd 837e bde6 213f
00000140: daa4 5221 50fa 0a3f 9332 2da2 6bb4 f93e
00000150: 1b8f 801f 6771 f3be b65d 89ce 9089 00bf
00000160: 5cfd bb11 9e03 16bf 5a41 15fb 449a 16bf
00000170: 8ec1 cdde 101a 11bf a793 0b02 0c5c f03e
00000180: 5e63 d451 3d3e 0e3f 13a0 5d3d 540f 223f
00000190: 4ce0 e8b4 8eeb 0a3f 86c4 4d6d 8e74 f83e
000001a0: ccf6 f94b 06b8 f3be 8230 dd17 0e9a 00bf
000001b0: 4936 97b4 eb5d 16bf 3d20 93dd f481 16bf
000001c0: ce23 41e8 9909 11bf a6e2 c6ae 2bdc f13e
000001d0: 6b3d 74c4 5ed3 0d3f 5298 6f17 bbe3 213f
000001e0: f84e f69f 504f 093f 4717 cd62 c6db f83e
000001f0: 5739 ad4a 9b1e f6be 6432 6fb6 b120 00bf
00000200: 9453 42d5 f72c 16bf b08b f48f 8b85 15bf
00000210: 7ebc 6ddb f39c 11bf 5790 110e 6a0d f23e
00000220: 3c04 56d6 acfc 0d3f cdd9 e57c d1ff 213f
00000230: 3c66 8dc4 e570 0a3f 82f7 4bac 9c2e fa3e
00000240: b6c5 ce9d b236 f4be 5540 6e07 036f ffbe
00000250: 8d97 6463 2063 16bf d863 7460 46b4 15bf
00000260: bc63 ee40 f897 11bf bbbd b836 05aa ed3e
00000270: c6ca 11b9 5664 0e3f bb74 a4e9 41f6 213f
00000280: bcb2 f92a 5913 093f 274e 5c27 e6bc fb3e
00000290: 34b6 46aa 6d8e f6be 8b86 cb62 7cbe febe
000002a0: 18ca d6db 7f64 15bf 9dd0 8b8c fbdb 14bf
000002b0: 10a5 784b 55a7 10bf a690 8bdf dabe e93e
000002c0: 6564 cf38 0260 0e3f 1ff5 0891 a1f9 213f
000002d0: d9e9 4259 288a 093f 954a 8fc0 6919 fc3e
000002e0: 9877 4071 d0b3 f8be 8d7e 0e9d 78a8 01bf
000002f0: 8aa6 47b2 b50e 15bf 3678 755d 695b 14bf
00000300: c3ff d400 f0fc 10bf e42a 844a bf62 ed3e
00000310: 6016 8b52 25e5 0c3f aa84 cee1 8993 213f
00000320: c6aa f2c0 ba1c 093f 3e9e 6dd4 5be8 f93e
00000330: 2db6 1698 dc93 f4be 6791 db13 1a2f 00bf
00000340: 2c60 0fe9 4c5d 15bf 7891 f7d6 63bd 13bf
00000350: 1490 97ac 3661 11bf 4669 e907 ac54 ea3e
00000360: 5ce7 2790 c43a 0d3f 19e5 c0fb 8295 213f
00000370: 61ea 3af3 7d74 093f f883 2ed9 518c fa3e
00000380: b8da 16df a23a f5be 00c2 4731 2ef0 00bf
00000390: e9f8 3362 f3cc 15bf 34a0 b613 a890 12bf
000003a0: ffce 79ac ad9c 11bf 49ea 7773 7bb3 eb3e
000003b0: bae7 4501 3e1f 0c3f 1882 404b a308 213f
000003c0: c074 9f6b f097 093f 7d5e cdc0 209e fd3e
000003d0: 8187 d102 761f f5be b564 ad42 3ef6 00bf
000003e0: cff3 9fad 8be6 15bf ade2 aa6f 439d 12bf
000003f0: b30e 952e 434b 12bf f044 cc45 be47 ec3e
00000400: 08b4 16dc 90d1 0c3f 1840 3795 3875 213f
00000410: aa80 f7ca 57a9 093f beab 2f9c 0c8b fd3e
00000420: 4db8 e146 f4c1 f4be fb5e 8915 5ad7 01bf
00000430: caf5 61bc b61c 16bf 4a18 a68f 0b83 12bf
00000440: 9931 5b10 d401 12bf b2e7 022d 9ca9 e83e
00000450: 0406 2525 a09b 0c3f b9bf 20ba 6ab1 213f
00000460: eee7 6d05 3bb4 093f 9b9a 5f4e 1840 fa3e
00000470: 6567 e13e f7b4 f2be 631e 8936 db42 01bf
00000480: ab6c 9b68 a786 15bf 10ba 8116 93d7 11bf
00000490: 29d1 b04d c09e 12bf 4962 1146 1803 ea3e
000004a0: 3a77 9a9b 26cd 0c3f 8b84 39d0 f4c4 213f
000004b0: d826 7d03 0980 083f 785f 770a 1a4c fa3e
000004c0: 00ab 9e0d 762a f2be 0c58 2580 e5ed 00bf
000004d0: d481 0714 1272 15bf 15ed ca4a 6a1e 12bf
000004e0: 2d7b 4414 fc1f 13bf 235d eafc 01cd e73e
000004f0: 9324 3b3e db4d 0d3f 1859 42ac 269f 213f
00000500: cac9 1d4e 96a4 073f e517 7970 1b66 f73e
00000510: 6497 2d37 49c4 f3be 3c81 6161 a46f 00bf
00000520: 26c9 107e f304 15bf 7be9 0bbe 0bb9 11bf
00000530: 388a cda6 32b5 12bf b342 256f f124 f03e
00000540: 383a e9f3 e01e 0d3f 7c74 5227 25ea 213f
00000550: 6b8b 14e1 8b1b 093f c309 01da 687a f63e
00000560: bb39 3521 5441 f6be 5409 1b9b dcbb 01bf
00000570: 4783 182c 766d 15bf 7b8a 1459 1166 11bf
00000580: e88b bde1 6088 13bf ca77 6699 4c0d ec3e
00000590: 9d92 54df 2590 0c3f f023 a876 c111 223f
000005a0: b5d3 3dea 5a96 083f a19c 81cd af7b f73e
000005b0: 3526 a381 00c3 f8be 9c99 d641 d47c 01bf
000005c0: d364 b938 23bc 15bf e8d0 7c51 857e 11bf
000005d0: 49bc 1acd 5f0d 13bf a9bc 1fd7 76a7 ee3e
000005e0: 4901 a3ac 5fe8 0b3f e7a0 3d58 e5b3 213f
000005f0: d2fe 5f10 9edc 083f 0142 8073 33a9 f83e
00000600: 057a c177 6a54 f8be e83b 6dbd 291d 01bf
00000610: 024e 5418 fc9a 15bf 6201 2884 e10e 12bf
00000620: 1040 6687 f3c9 12bf 0fbe f05e e32a f23e
00000630: 1db9 f507 b4bc 0d3f bdb6 71fc 6cda 213f
00000640: 0103 7050 a400 093f 4a73 e238 c869 fb3e
00000650: fe96 177b 2210 f9be 846d 1e46 1231 01bf
00000660: e066 9ab3 6019 16bf 8b7f 5921 d060 12bf
00000670: cbf5 ff27 32f5 12bf e8f8 7091 9308 f13e
00000680: a731 375a 7182 0e3f d9fa 8145 a92a 223f
00000690: de50 7a04 3d72 083f 5a1a b9b0 ca2c fa3e
000006a0: 233c 1700 29b0 f7be b91d 5b0a 81df 00bf
000006b0: 82fa 5e98 5e12 16bf 321f 6da1 d5ef 12bf
000006c0: d137 9877 8714 13bf b49e 6468 ed0b f33e
000006d0: 06b9 a005 17b5 0e3f db47 0e9e c120 223f
000006e0: 3f3f 895d b7ee 093f e8c5 a538 8f53 fb3e
000006f0: 9628 de5a 111a f8be b1f0 f955 5bfd febe
00000700: 6a29 2c62 7034 16bf 1046 8f6f 584f 13bf
00000710: 41f6 7feb 7fe7 12bf 6f0e a9d5 dd2e f03e
00000720: 4a84 c136 94dc 0d3f 1524 e56e c408 223f
00000730: 6717 8bbf d599 073f 7fff 3695 63b1 fd3e
00000740: cf82 9fc5 7d4b f8be 8cf2 992b 8b89 fdbe
00000750: 85ef 2855 d226 17bf 8850 c32d 22dd 13bf
00000760: 7e3f 8e64 1c7f 12bf fc85 6aaf 77c5 f13e
00000770: 7148 83b5 17b3 0e3f 0cf9 eca0 46d7 213f
00000780: 3d02 feae eb00 093f ffc0 b2f4 fc91 fc3e
00000790: fc32 7e31 5b10 f7be ed67 2833 1324 fcbe
000007a0: ceb1 2994 ebb2 16bf 1c21 dd59 9605 15bf
000007b0: 2dcd 623c 06b4 12bf 47d2 d5d4 7d5e f43e
000007c0: ea46 e3bd 6fe6 0d3f a09f 98f6 a9e3 213f
000007d0: 503c 2648 c8e3 083f d1d6 f3ed 71c5 fa3e
000007e0: 465f bf4f 8e8c f7be e6d4 6a41 2539 fdbe
000007f0: c7a2 850d 7e8e 16bf 5a91 cc4c 5f9c 15bf
5.0648251391861985e-05 2.2783278738368953e-05 -2.0069086994728526e-05 -3.674021724693417e-05 -9.178971843130883e-05 -8.89405103302852e-05 -5.700456695067143e-05 2.1334157982892298e-05
5.7389624008169405e-05 0.00014120299898161173 4.9907131928246914e-05 2.506729080487382e-05 -1.9570095941039378e-05 -3.267862923689282e-05 -8.796715671113014e-05 -8.873518451876809e-05
-5.8970654032016194e-05 1.7275126139485538e-05 5.5520567753475287e-05 0.00013886902381855888 4.9205711478161875e-05 2.485884167658888e-05 -1.7569865180418946e-05 -3.286020588396998e-05
-8.414827030689992e-05 -9.001249304602693e-05 -6.144054155339124e-05 1.7974172962094264e-05 5.645545926417887e-05 0.00013843608885543413 4.7978585242283455e-05 2.4624302930381633e-05
-1.80192976386193e-05 -3.307814768085031e-05 -8.611820743618786e-05 -8.761480517380803e-05 -6.297026782392177e-05 1.5889015939504965e-05 5.920581382508748e-05 0.00013657630120843226
5.145604169715943e-05 2.451397643747856e-05 -1.8542270453405286e-05 -3.154252209885569e-05 -8.397724417007673e-05 -8.622213387821567e-05 -6.52382656889437e-05 1.5601690509198633e-05
5.768417961799528e-05 0.00013778594319124922 5.1346104204375535e-05 2.3322389853534557e-05 -1.8805357056886696e-05 -3.1665377703577794e-05 -8.532286769665736e-05 -8.585984268727558e-05
-6.499292254703791e-05 1.703266291183899e-05 5.6887940951817446e-05 0.0001364866145358601 4.8274658179496153e-05 2.3706909064522758e-05 -2.10948534616282e-05 -3.0761168822478186e-05
-8.459341671802754e-05 -8.209862061340947e-05 -6.718862901576754e-05 1.721610977191453e-05 5.719568688800815e-05 0.00013732368683934266 5.043221660256918e-05 2.496917547300344e-05
-1.927725121548203e-05 -2.9977455109853345e-05 -8.540044004642766e-05 -8.279494806052946e-05 -6.711437911945025e-05 1.4144965198330654e-05 5.796804101345291e-05 0.00013703875158280706
4.7827871978300154e-05 2.645291029697134e-05 -2.151142202116135e-05 -2.9319844702230382e-05 -8.160620105605203e-05 -7.957194169333705e-05 -6.352861498072995e-05 1.2276424045727933e-05
5.7935779387904137e-05 0.00013713929412687787 4.8713070243750364e-05 2.6797552013689016e-05 -2.35580437931631e-05 -3.368013461302081e-05 -8.03278349576169e-05 -7.765608403562181e-05
-6.480421889865002e-05 1.401220863829961e-05 5.5113030901260364e-05 0.0001340967000063355 4.7897767325129996e-05 2.470746155883011e-05 -1.9624314068591803e-05 -3.086851437020498e-05
-8.149892734310497e-05 -7.530137894879395e-05 -6.629844860800454e-05 1.2555479995392108e-05 5.575096476557906e-05 0.00013415550154308937 4.855164880042808e-05 2.5318263918831075e-05
-2.0245597573266132e-05 -3.230706184698465e-05 -8.316264625205277e-05 -7.082010136250165e-05 -6.718454380366319e-05 1.3208914977793104e-05 5.363853429947393e-05 0.00012995713552845021
4.8815750645061964e-05 2.824562766376306e-05 -2.0144361929992208e-05 -3.2352232969665e-05 -8.354403999528903e-05 -7.100795839222003e-05 -6.978604837564843e-05 1.348507265100599e-05
5.4967149036279416e-05 0.0001331931658641323 4.8945419049096814e-05 2.8174554028408598e-05 -1.9796022052203083e-05 -3.402942337932081e-05 -8.435120898472103e-05 -7.061727584387157e-05
-6.869179568553262e-05 1.1760015155782295e-05 5.4565262547001e-05 0.00013498714275916675 4.902653807099798e-05 2.503430450664455e-05 -1.7840287846438737e-05 -3.292304501606167e-05
-8.211514264238005e-05 -6.806216481589794e-05 -7.10301277855914e-05 1.2403530663161347e-05 5.493425437673315e-05 0.00013556946224738508 4.673030383501941e-05 2.5079033233981846e-05
-1.732431778804066e-05 -3.2290045072144805e-05 -8.180842724626126e-05 -6.911777263500882e-05 -7.295585698273146e-05 1.1349111358512222e-05 5.589318587124431e-05 0.0001344427784075251
4.5095288227953495e-05 2.2314888182849066e-05 -1.885103433654031e-05 -3.134937667037755e-05 -8.01824203484942e-05 -6.760725183233521e-05 -7.136460926696834e-05 1.539641284270766e-05
5.554317475696787e-05 0.00013667777571849452 4.788895251752505e-05 2.1436846168629427e-05 -2.1224203078867967e-05 -3.3824605805604175e-05 -8.173974767845565e-05 -6.637078174213412e-05
-7.451144523211407e-05 1.3376212149303948e-05 5.447974755615657e-05 0.00013785826315906814 4.68966002519564e-05 2.2395278250900004e-05 -2.3614622570977516e-05 -3.3354976248833895e-05
-8.291211104828897e-05 -6.673515997307792e-05 -7.267853950553115e-05 1.461704116320483e-05 5.3229732274842077e-05 0.00013506102197458696 4.742009518565533e-05 2.3518506367338838e-05
-2.3202657289162296e-05 -3.264220838749399e-05 -8.241809526437357e-05 -6.888629381052649e-05 -7.1673859429078e-05 1.7325908569341667e-05 5.671905909819723e-05 0.00013620930096485363
4.7688497993197625e-05 2.614327564086646e-05 -2.3901964317027916e-05 -3.2790537047601285e-05 -8.430149764606818e-05 -7.010717703215105e-05 -7.231825475169995e-05 1.6244413100213138e-05
5.819233345114314e-05 0.0001386005049006298 4.6627509218273694e-05 2.4962394532113782e-05 -2.2590757003556596e-05 -3.218281316957499e-05 -8.419706691052169e-05 -7.223836324243558e-05
-7.278515649763942e-05 1.816424494296863e-05 5.8569684100328144e-05 0.00013830531591146788 4.94622906371798e-05 2.6060489781659218e-05 -2.2985293689305694e-05 -2.9554057049172622e-05
-8.470474180569611e-05 -7.366158742107992e-05 -7.211416493643157e-05 1.5433380534680992e-05 5.695655167482128e-05 0.00013759038797392432 4.501517827785913e-05 2.8317380680098044e-05
-2.3169410589110256e-05 -2.8168945141337487e-05 -8.831652420665359e-05 -7.577439413647598e-05 -7.055865093108339e-05 1.6948087216866664e-05 5.855480293494385e-05 0.00013611542859765684
4.769057511478214e-05 2.7246728944775065e-05 -2.1995440959754288e-05 -2.6837270704495255e-05 -8.658945902490571e-05 -8.019189996589067e-05 -7.134712277228192e-05 1.942549470386665e-05
5.7029996001779274e-05 0.00013648462054160777 4.747347795152539e-05 2.5531072307813735e-05 -2.2458120824214092e-05 -2.7869438862200643e-05 -8.604664197310172e-05 -8.243877091424403e-05
