A2/svm_best_model.pt (torch, 247450 bytes, 1 tensors)

W f8 [3073, 10]
-0.0009396358298266432 0.0018257732002281077 -0.0019014490236249771 0.0008771958013406694 -0.0074391734241015415 -0.0040296793282376155 0.002622156499988941 0.0012291222713720754
0.002712323264290971 0.005043344936901239 -0.0012977758644285142 0.0023613379249666634 -0.0009584365946655979 0.001654116613370395 -0.006194997381970969 -0.005172464626804553
0.0024555438931665643 0.0002851398922510978 0.002316775837032165 0.004550736909708408 -0.0019031393183563115 0.002845785748056304 -0.0005749969540759062 0.0019596693699268112
-0.005393331696329294 -0.004770061271365946 0.002423095723778937 0.0001969385054258585 0.0016776732321627835 0.0035383830588644324 -0.001914587574940141 0.0028626293904197874
-0.0009250886129636027 0.0020970114388984885 -0.005001062567883652 -0.0038150606528615737 0.0016552596235741594 0.00021052128159009537 0.001735994563727828 0.003094318774744171
-0.0015522723772849628 0.0029650708637896767 -0.0012976911893195831 0.0022915352714498976 -0.004305047682339896 -0.003530589929859309 0.0008933269865697278 0.000254365195978115
0.0015211950935413254 0.0027601354849332007 -0.0014732473341838184 0.002573553719171901 -0.0011384352025984752 0.0022947337069351642 -0.004374574442475996 -0.0033323459044894573
0.0009542343296360287 0.0012058769128775765 0.001316714459991507 0.001973461102569175 -0.0019006390690234072 0.0027836542636035617 -0.0008725853116367827 0.002823659905530617
-0.0042707966788984785 -0.0028649487111480046 0.0006760656320510402 0.000925692138624474 0.0011187691777210422 0.0015810918100754039 -0.0022640609880486095 0.0027899198473895596
-0.0006628545186230027 0.004005141999459759 -0.003931770297691457 -0.0026383774278223265 0.0006573984890114447 -7.173303037581631e-05 0.0009011807040439183 0.001215155016085066
-0.002499248570755404 0.003035668820652403 -0.001225220420308698 0.004036038619644343 -0.0033758337614983947 -0.0026667707847711697 0.0016430697628200346 -0.0005212676965399413
0.0002891533256952925 0.0012845218790818699 -0.002725306182682945 0.0034462058516818196 -0.0013794696496926384 0.003727694336225767 -0.0027960046629712946 -0.0015228747974350566
0.0013108886651879493 -0.000808043044870857 -2.3384689494547657e-05 0.0007702705728274563 -0.002805616345465306 0.00336539263278701 -0.0013528991234545817 0.003572333775338642
-0.0029268816545012476 -0.00023890151141418286 0.0010548368129840158 -0.001018660569080657 -0.0002545055673411189 0.0006049284685267787 -0.0025054060566727762 0.003463602353249058
-0.0014242921929299263 0.004479783497840491 -0.0036946629202064293 1.850639039981172e-05 0.0002571685097560979 -0.0006363244166416378 -0.0006172966336109024 0.0006588659123507587
-0.0027083408476696307 0.00472684645892355 -0.0014640148285687102 0.004279956983049172 -0.0039939924687755445 -0.00040891986696195215 0.0002136064956380907 -0.0008308393253423858
-0.0008308041586862411 0.0010165357104861543 -0.0027277261293685096 0.0040997661770891935 -0.0008771329844477026 0.004086575146535119 -0.003764158415717788 -0.0007693013070811806
0.0012305370257901112 -0.0015850668161368202 -0.0006422080044046158 0.000948732577258432 -0.003027847991126663 0.0034114541686867668 -0.0003028793351183348 0.003990236015147879
-0.0031237137269919104 -0.0009638573352504393 0.0003219062300327561 -0.0012133292316310045 -0.0005969966309831418 0.0015051190005208165 -0.0033617155496642025 0.003119056128316437
0.00010779481017654951 0.003854882890144512 -0.0027504691413601616 -0.0010463489786963424 -0.00038396698820402974 -0.0008028483441101687 -0.00040170005388839056 0.001665315190672919
-0.003471196261031322 0.003092013126563306 -0.0007427530221679991 0.0035652685950708146 -0.002768047717494345 -0.0004354427888485247 -0.0004351341973693252 -0.0005630035510267297
-0.00026312425270659615 0.0020215235555236196 -0.003387267918674674 0.0027454945911732716 -0.0017494960319989527 0.0031222972099076963 -0.002964794380089158 0.0004932813767230563
7.784368177997191e-05 -0.00051466355613158 -0.00027880151463221154 0.0024560585504541602 -0.0035476483066382678 0.0024324368566705596 -0.002825476487361687 0.004025462302314471
-0.0028097801892842627 0.0005522316581708677 0.0007908776041089353 -0.00046739852813943686 -0.0005277471610727706 0.0023769128077826907 -0.0034910114860935604 0.002890260157596758
-0.0028381106375004518 0.0038499695243779932 -0.002783402607797996 0.0005552751626972177 0.00032796458231105564 0.00014913844597196985 -0.0005684870669583651 0.0019084471555007405
-0.003121456785517574 0.0038059767393213545 -0.0026729753384226638 0.0034386264197480716 -0.003419264302438827 0.00033509047796718197 0.0001200722219165879 -0.00019400669110344372
-0.00014197651558782757 0.0018499767030956342 -0.0031537108472421385 0.004018744604764254 -0.0022447828327505975 0.00309186303627209 -0.0034881812629105387 0.00031112997965700785
-0.000568452114063704 9.416487246194334e-05 0.0004155507933661419 0.0015237218390975196 -0.003103789887149094 0.004108278326986588 -0.0025109078460000323 0.0038912580362232274
-0.003636829386352628 -0.00011634521854988308 -0.0004961928920482981 0.00012240178228590162 0.0003943285529021057 0.0013478438323176057 -0.0030044258604448124 0.004437968880760769
-0.002800204695897889 0.005240255573324267 -0.004416377385544716 -0.0008363059030000024 -0.0004880911452160741 0.0004437977992581306 0.0005687959800144401 0.0008545678384843252
-0.00290325105713481 0.004252427171232291 -0.0025130588694565656 0.005152778302065183 -0.005020200470026324 -0.0016219013743660375 -0.00037693298372702184 0.00121431491613121
0.0006872553175001876 0.001128585761894359 -0.003015965809015706 0.0039007603625148823 -0.002505012380421867 0.0050904834281480125 -0.004856152576387369 -0.002647771875714996
00000000: e679 6294 3cca 4ebf 6049 d50b d9e9 5d3f
00000010: c355 c657 4127 5fbf 6b86 b4a3 73be 4c3f
00000020: 3378 0de9 8978 7ebf 84b1 d9ce 6c81 70bf
00000030: a3c2 328d 0f7b 653f 3a40 55fd 4f23 543f
00000040: 4a02 ec76 2738 663f 4c21 1099 54a8 743f
00000050: b8ea 4b39 4443 55bf 5f7f 33a5 1558 633f
00000060: df11 29ea f267 4fbf 0849 8630 de19 5b3f
00000070: a74d 78f2 ec5f 79bf 0ee8 96e6 b82f 75bf
00000080: aca1 e116 a61d 643f 1ea8 1283 daaf 323f
00000090: 0e8e 788e a1fa 623f f3c7 3223 cba3 723f
000000a0: 7fde 7348 582e 5fbf 47b5 0497 0b50 673f
000000b0: 5f9b 788e 6cd7 42bf 8697 5a7b b90d 603f
000000c0: 1812 0974 5117 76bf 1c22 9192 c589 73bf
000000d0: ba4b 709c 99d9 633f 8f59 58e1 28d0 293f
000000e0: 12c7 97ea ab7c 5b3f dee7 97f0 86fc 6c3f
000000f0: 67b2 42c1 5c5e 5fbf c5f4 9873 5e73 673f
00000100: 909c 56ab 3450 4ebf cdbd 9471 c02d 613f
00000110: 5af9 c982 fe7b 74bf 73be 8f17 c340 6fbf
00000120: 0ce8 c67c a91e 5b3f cf56 010a ec97 2b3f
00000130: 69c7 24f8 4971 5c3f c20e 1cbe 4159 693f
00000140: 4a38 13c6 b36e 59bf 9b54 7d4c 344a 683f
00000150: 9ad6 fa4d e942 55bf 3760 8da1 b2c5 623f
00000160: 2cce 0d70 2ba2 71bf d240 1909 2fec 6cbf
00000170: 79db 9118 c545 4d3f fef0 ad32 8aab 303f
00000180: 29ba 5dcb 5aec 583f 7e7a 7d74 6c9c 663f
00000190: 499b a147 3f23 58bf 0ef1 dd21 2215 653f
000001a0: cb7f ae7d f1a6 52bf 7297 2dc7 67cc 623f
000001b0: 642f a1e2 12eb 71bf a340 b895 6f4c 6bbf
000001c0: a267 879e b244 4f3f 8d08 d879 d0c1 533f
000001d0: 612c ce62 b392 553f 69a1 a7dc a52a 603f
000001e0: 7e2e 26a9 db23 5fbf 964a d100 bfcd 663f
000001f0: 1083 2fb0 c697 4cbf 6581 60de a421 673f
00000200: 570e 0541 417e 71bf 7973 9ca0 3b78 67bf
00000210: 8238 cae3 3f27 463f d447 14bb 4455 4e3f
00000220: 54e8 ec41 7554 523f 8798 7067 94e7 593f
00000230: 974f cb7c 148c 62bf 5892 18d0 e2da 663f
00000240: 3cfb 5f3d 6db8 45bf e5cc 741e b267 703f
00000250: a1e5 808d c21a 70bf b746 8b18 149d 65bf
00000260: f50e 6081 a88a 453f b3ab f913 eccd 12bf
00000270: 606d 69d3 a687 4d3f 5f18 6fc3 bae8 533f
00000280: 90f0 07dc 4d79 64bf ca4c cc49 42de 683f
00000290: e6f3 ad68 f212 54bf 323b 07de 1788 703f
000002a0: d299 46f3 a2a7 6bbf ee03 cfa9 9fd8 65bf
000002b0: 26f0 5db9 88eb 5a3f 74cc c3da b514 41bf
000002c0: 25e4 cf13 30f3 323f 6fb9 8bdd ac0b 553f
000002d0: d782 a39d 6153 66bf 8848 b4ad 373b 6c3f
000002e0: b312 0042 ea99 56bf f232 6fa8 8a89 6e3f
000002f0: 6217 c892 a5e7 66bf c351 db5c 66f3 58bf
00000300: 9f02 86fc 437a 553f b31d ca39 5b7a 4abf
00000310: d0d1 2da0 4785 f8be 87c1 ad75 7f3d 493f
00000320: 405c 5dce cdfb 66bf fbfd 7869 bd91 6b3f
00000330: b38f 5c5f 782a 56bf 4a04 8917 ba43 6d3f
00000340: b8f2 879f 1dfa 67bf 31e5 625b 3450 2fbf
00000350: fb0d 5267 4e48 513f a882 1d75 92b0 50bf
00000360: e012 a016 e5ad 30bf 0b18 8ffe 81d2 433f
00000370: 9996 73a2 3786 64bf 1078 ac5a b35f 6c3f
00000380: b187 de18 ea55 57bf efb6 dcb9 6459 723f
00000390: 875a 2f0d 4544 6ebf a390 ec76 c567 f33e
000003a0: d04f c656 92da 303f 3a50 9147 e0d9 44bf
000003b0: f998 386d 423a 44bf fd2f e3c5 f796 453f
000003c0: 7cca bf6b cd2f 66bf a6c5 442f 755c 733f
000003d0: b2db cff3 85fc 57bf 01e6 5334 dc87 713f
000003e0: 1cb2 8a30 015c 70bf d9a3 8d74 89cc 3abf
000003f0: eef3 71d3 71ff 2b3f c985 83dd 9539 4bbf
00000400: b6a9 7058 4a39 4bbf fda8 6ee8 a8a7 503f
00000410: 9221 94d0 7458 66bf 0ef5 6d9a eaca 703f
00000420: 5bc8 c0bd ecbd 4cbf 1855 b6a9 15bd 703f
00000430: 4bec 5b29 03d6 6ebf 8613 33fa 5d35 49bf
00000440: c6f7 1012 3f29 543f 7d3c c988 40f8 59bf
00000450: d297 2530 3b0b 45bf 993a 2cb2 8b16 4f3f
00000460: 1739 2c83 dbcd 68bf 7f12 c382 56f2 6b3f
00000470: 8092 c6d6 78d9 33bf 529c 03d3 1058 703f
00000480: be79 9509 e796 69bf 9501 d0dd 6b95 4fbf
00000490: 2f7c f9ba b018 353f 7dec 9f57 12e1 53bf
000004a0: f428 c180 f88f 43bf 3697 9038 eda8 583f
000004b0: 9c32 044b 078a 6bbf 23a3 1882 228d 693f
000004c0: 3be5 cfbc fc41 1c3f 73b7 2d7e 4694 6f3f
000004d0: 5877 58e0 2688 66bf 6371 32a9 b424 51bf
000004e0: d763 36a8 e529 39bf 9b4c d8b0 c74e 4abf
000004f0: 6ce7 2098 6853 3abf f0a3 0392 d648 5b3f
00000500: 0b7d 694d a06f 6cbf 608e 3ce8 6b54 693f
00000510: e240 38f8 a956 48bf 4e99 8d00 e934 6d3f
00000520: 91f6 734d 04ad 66bf 2bf6 9189 8489 3cbf
00000530: 728a a625 5784 3cbf f8a1 6aeb d072 42bf
00000540: 1199 660f 7e3e 31bf b5e1 e331 718f 603f
00000550: 9836 df9d 9dbf 6bbf 51b7 5f2f b87d 663f
00000560: 9492 7b0f eba9 5cbf 7b50 f58c ee93 693f
00000570: 58ef dbdc 9f49 68bf 1876 bcb0 f129 403f
00000580: 745b 1045 0068 143f ddfa 2d92 4fdd 40bf
00000590: 53ff 2d63 8345 32bf f422 d764 ba1e 643f
000005a0: 5913 8d2e f50f 6dbf 96af f797 30ed 633f
000005b0: 6294 7b23 7425 67bf 6e19 09cf 007d 703f
000005c0: 379b b340 8904 67bf 1644 b174 7418 423f
000005d0: 60c5 eeb8 5cea 493f 94a4 7e64 a5a1 3ebf
000005e0: 5609 1066 104b 41bf 92bc cb58 bf78 633f
000005f0: 291a 3585 2e99 6cbf 1a69 529b 50ad 673f
00000600: 8d16 db0b f33f 67bf fe60 54a6 f889 6f3f
00000610: 3eca 81e5 37cd 66bf 401a 0055 fc31 423f
00000620: a6ec bf27 557e 353f 4e3f fd7e 418c 233f
00000630: 1d35 2eae d0a0 42bf ac05 9e87 9b44 5f3f
00000640: 1bdc e859 2b92 69bf dbb8 fd33 b62d 6f3f
00000650: ab55 2bb5 a2e5 65bf 84e7 8280 522b 6c3f
00000660: 7b11 5f8b b702 6cbf 6fc6 e1a4 e2f5 353f
00000670: f045 ae10 e979 1f3f 441b 78c9 c86d 29bf
00000680: 7416 85fb f09b 22bf 63c6 0a5c 5d4f 5e3f
00000690: f9f3 659e cfd5 69bf 7c01 608a f575 703f
000006a0: 8e1e 4e9b a663 62bf 31e7 fb53 1b54 693f
000006b0: 4c89 4b0e 3f93 6cbf 73f1 6116 e563 343f
000006c0: 259a 9f9e 85a0 42bf e4bf cc30 4caf 183f
000006d0: 55d4 3c11 c93b 3b3f 815f e5dd f3f6 583f
000006e0: f201 e381 1e6d 69bf 1597 ea90 d7d3 703f
000006f0: cd6e 9e62 c191 64bf c022 3040 8fe0 6f3f
00000700: 8807 d1e8 fbca 6dbf e9e5 86a2 cb7f 1ebf
00000710: d5a4 361f 5e42 40bf ad88 c44d 1f0b 203f
00000720: 8677 143d bcd7 393f c3cc 834b 4415 563f
00000730: 1433 0bda bc9c 68bf 0eac 4133 8c2d 723f
00000740: b15d e972 74f0 66bf 5535 f664 ce76 753f
00000750: abda 0047 e816 72bf 75f4 5c40 7167 4bbf
00000760: 335f 9481 cffc 3fbf 366c aa08 b115 3d3f
00000770: f3d6 ed10 68a3 423f 8a86 9175 a200 4c3f
00000780: a886 f50a 8fc8 67bf eba5 103a fe6a 713f
00000790: 6b19 0835 4496 64bf 898f a764 141b 753f
000007a0: bef7 68cd 0f90 74bf 542a 0e57 bf92 5abf
000007b0: a30a 80d6 e2b3 38bf cf5b 84b6 34e5 533f
000007c0: e5d1 6b8e 1d85 463f 544c 09bc a17d 523f
000007d0: 959a 7f50 f0b4 68bf 4017 f8c5 7cf4 6f3f
000007e0: cce4 ff47 6485 64bf 13ff 833d c2d9 743f
000007f0: 6ee0 ff87 0be4 73bf 4580 a1b3 c7b0 65bf
